…
2D(2))model.add(keras.layers.Flatten())model.add(keras.layers.Dense(100, activation='relu'))model.add(keras.layers.Dropout(0.4))model.add(keras.layers.Dense(10, activation='softmax'))32개의 3 x 3 커널을 가진 합성곱 층, 2 x 2 커널의 Max 풀링 층, 그 다음엔 다시 64개의 3 x 3 커널을 가진 합성곱 층, 그 다음엔 2 x 2 커널의 풀링 층이 추가되어 있습니다. 결과를 내기 위한 밀집층 전에는 픽셀들을 펼치는 Flatten 층을 추가해주고, 밀집층들 사이에 Dropout 층을 넣어 과대적합을 방지해 줍니다.model.summary()=&gt;Model: \"sequential\"_________________________________________________________________ Layer (type) Output Shape Param # ================================================================= conv2d (Conv2D) (None, 28, 28, 32) 320 max_pooling2d (MaxPooling2D (None, 14, 14, 32) 0 ) conv2d_1 (Conv2D) (None, 14, 14, 64) 18496 max_pooling2d_1 (MaxPooling (None, 7, 7, 64) 0 2D) flatten (Flatten) (None, 3136) 0 dense (Dense) (None, 100) 313700 dropout (Dropout) (None, 100) 0 dense_1 (Dense) (None, 10) 1010 =================================================================Total params: 333,526Trainable params: 333,526Non-trainable params: 0_________________________________________________________________summary 메서드로 모델의 형태를 살펴보면 위와 같습니다. 이 외에도 다음과 같은 방법으로 모델을 시각화할 수 있습니다.keras.utils.plot_model(model)기능은 이것 뿐이 아닙니다. show_shapes로 input과 output의 크기를 알 수 있고, to_file로 파일을 저장할 수 있으며, dpi로 해상도를 바꿀 수 있습니다.ke
…
